…
    mean_value: 91.346924
  }
  image_label_data_param {
    image_list_path: "dataset_kitti/Kitti/KITTI_SEMANTIC/train.txt"
    label_list_path: "dataset_kitti/Kitti/KITTI_SEMANTIC/train.txt"
    batch_size: 2
    shuffle: true
    rand_scale: false
    min_scale: 1
    max_scale: 1
    label_slice {
      dim: 66
      dim: 66
      stride: 8
      stride: 8
      offset: 186
      offset: 186
    }
    image_dir: "dataset_kitti/Kitti/KITTI_SEMANTIC/train/RGB/"
    label_dir: "dataset_kitti/Kitti/KITTI_SEMANTIC/train/GT/"
    padding: REFLECT
  }
}
layer {
  name: "conv1_1"
  type: "Convolution"
  bottom: "data"
  top: "conv1_1"
  param {
    lr_mult: 1
    decay_mult: 1
  }
  param {
    lr_mult: 2
    decay_mult: 0
  }
  convolution_param {
    num_output: 64
    kernel_size: 3
  }
}
layer {
  name: "relu1_1"
  type: "ReLU"
  bottom: "conv1_1"
  top: "conv1_1"
}
layer {
  name: "conv1_2"
  type: "Convolution"
  bottom: "conv1_1"
  top: "conv1_2"
  param {
    lr_mult: 1
    decay_mult: 1
  }
  param {
    lr_mult: 2
    decay_mult: 0
  }
  convolution_param {
    num_output: 64
    kernel_size: 3
  }
}
layer {
  name: "relu1_2"
  type: "ReLU"
  bottom: "conv1_2"
  top: "conv1_2"
}
layer {
  name: "pool1"
  type: "Pooling"
  bottom: "conv1_2"
  top: "pool1"
  phase: TRAIN
  pooling_param {
    pool: MAX
    kernel_size: 2
    stride: 2
  }
}
layer {
  name: "conv2_1"
  type: "Convolution"
  bottom: "pool1"
  top: "conv2_1"
  param {
    lr_mult: 1
    decay_mult: 1
  }
  param {
    lr_mult: 2
    decay_mult: 0
  }
  convolution_param {
    num_output: 128
    kernel_size: 3
  }
}
layer {
  name: "relu2_1"
  type: "ReLU"
  bottom: "conv2_1"
  top: "conv2_1"
}
layer {
  name: "conv2_2"
  type: "Convolution"
  bottom: "conv2_1"
  top: "conv2_2"
  param {
    lr_mult: 1
    decay_mult: 1
  }
  param {
    lr_mult: 2
    decay_mult: 0
  }
  convolution_param {
    num_output: 128
    kernel_size: 3
  }
}
layer {
  name: "relu2_2"
  type: "ReLU"
  bottom: "conv2_2"
  top: "conv2_2"
}
layer {
  name: "pool2"
  type: "Pooling"
  bottom: "conv2_2"
  top: "pool2"
  pooling_param {
    pool: MAX
    kernel_size: 2
    stride: 2
  }
}
layer {
  name: "conv3_1"
  type: "Convolution"
  bottom: "pool2"
  top: "conv3_1"
  param {
    lr_mult: 1
    decay_mult: 1
  }
  param {
    lr_mult: 2
    decay_mult: 0
  }
  convolution_param {
    num_output: 256
    kernel_size: 3
  }
}
layer {
  name: "relu3_1"
  type: "ReLU"
  bottom: "conv3_1"
  top: "conv3_1"
}
layer {
  name: "conv3_2"
  type: "Convolution"
  bottom: "conv3_1"
  top: "conv3_2"
  param {
    lr_mult: 1
    decay_mult: 1
  }
  param {
    lr_mult: 2
    decay_mult: 0
  }
  convolution_param {
    num_output: 256
    kernel_size: 3
  }
}
layer {
  name: "relu3_2"
  type: "ReLU"
  bottom: "conv3_2"
  top: "conv3_2"
}
layer {
  name: "conv3_3"
  type: "Convolution"
  bottom: "conv3_2"
  top: "conv3_3"
  param {
    lr_mult: 1
    decay_mult: 1
  }
  param {
    lr_mult: 2
    decay_mult: 0
  }
  convolution_param {
    num_output: 256
    kernel_size: 3
  }
}
layer {
  name: "relu3_3"
  type: "ReLU"
  bottom: "conv3_3"
  top: "conv3_3"
}
layer {
  name: "pool3"
  type: "Pooling"
  bottom: "conv3_3"
  top: "pool3"
  pooling_param {
    pool: MAX
    kernel_size: 2
    stride: 2
  }
}
layer {
  name: "conv4_1"
  type: "Convolution"
  bottom: "pool3"
  top: "conv4_1"
  param {
    lr_mult: 1
    decay_mult: 1
  }
  param {
    lr_mult: 2
    decay_mult: 0
  }
  convolution_param {
    num_output: 512
    kernel_size: 3
  }
}
layer {
  name: "relu4_1"
  type: "ReLU"
  bottom: "conv4_1"
  top: "conv4_1"
}
layer {
  name: "conv4_2"
  type: "Convolution"
  bottom: "conv4_1"
  top: "conv4_2"
  param {
    lr_mult: 1
    decay_mult: 1
  }
  param {
    lr_mult: 2
    decay_mult: 0
  }
  convolution_param {
    num_output: 512
    kernel_size: 3
  }
}
layer {
  name: "relu4_2"
  type: "ReLU"
  bottom: "conv4_2"
  top: "conv4_2"
}
layer {
  name: "conv4_3"
  type: "Convolution"
  bottom: "conv4_2"
  top: "conv4_3"
  param {
    lr_mult: 1
    decay_mult: 1
  }
  param {
    lr_mult: 2
    decay_mult: 0
  }
  convolution_param {
    num_output: 512
    kernel_size: 3
  }
}
layer {
  name: "relu4_3"
  type: "ReLU"
  bottom: "conv4_3"
  top: "conv4_3"
}
layer {
  name: "conv5_1"
  type: "Convolution"
  bottom: "conv4_3"
  top: "conv5_1"
  param {
    lr_mult: 1
    decay_mult: 1
  }
  param {
    lr_mult: 2
    decay_mult: 0
  }
  convolution_param {
    num_output: 512
    kernel_size: 3
    dilation: 2
  }
}
layer {
  name: "relu5_1"
  type: "ReLU"
  bottom: "conv5_1"
  top: "conv5_1"
}
layer {
  name: "conv5_2"
  type: "Convolution"
  bottom: "conv5_1"
  top: "conv5_2"
  param {
    lr_mult: 1
    decay_mult: 1
  }
  param {
    lr_mult: 2
    decay_mult: 0
  }
  convolution_param {
    num_output: 512
    kernel_size: 3
    dilation: 2
  }
}
layer {
  name: "relu5_2"
  type: "ReLU"
  bottom: "conv5_2"
  top: "conv5_2"
}
layer {
  name: "conv5_3"
  type: "Convolution"
  bottom: "conv5_2"
  top: "conv5_3"
  param {
    lr_mult: 1
    decay_mult: 1
  }
  param {
    lr_mult: 2
    decay_mult: 0
  }
  convolution_param {
    num_output: 512
    kernel_size: 3
    dilation: 2
  }
}
layer {
  name: "relu5_3"
  type: "ReLU"
  bottom: "conv5_3"
  top: "conv5_3"
}
layer {
  name: "fc6"
  type: "Convolution"
  bottom: "conv5_3"
  top: "fc6"
  param {
    lr_mult: 1
    decay_mult: 1
  }
  param {
    lr_mult: 2
    decay_mult: 0
  }
  convolution_param {
    num_output: 4096
    kernel_size: 7
    dilation: 4
  }
}
layer {
  name: "relu6"
  type: "ReLU"
  bottom: "fc6"
  top: "fc6"
}
layer {
  name: "drop6"
  type: "Dropout"
  bottom: "fc6"
  top: "fc6"
  dropout_param {
    dropout_ratio: 0.5
  }
}
layer {
  name: "fc7"
  type: "Convolution"
  bottom: "fc6"
  top: "fc7"
  param {
    lr_mult: 1
    decay_mult: 1
  }
  param {
    lr_mult: 2
    decay_mult: 0
  }
  convolution_param {
    num_output: 4096
    kernel_size: 1
  }
}
layer {
  name: "relu7"
  type: "ReLU"
  bottom: "fc7"
  top: "fc7"
}
layer {
  name: "drop7"
  type: "Dropout"
  bottom: "fc7"
  top: "fc7"
  dropout_param {
    dropout_ratio: 0.5
  }
}
layer {
  name: "final"
  type: "Convolution"
  bottom: "fc7"
  top: "final"
  param {
    lr_mult: 1
    decay_mult: 1
  }
  param {
    lr_mult: 2
    decay_mult: 0
  }
  convolution_param {
    num_output: 11
    kernel_size: 1
    weight_filler {
      type: "gaussian"
      std: 0.001
    }
    bias_filler {
      type: "constant"
      value: 0
    }
  }
}
layer {
  name: "ctx_conv1_1"
  type: "Convolution"
  bottom: "final"
  top: "ctx_conv1_1"
  param {
    lr_mult: 1
    decay_mult: 1
  }
  param {
    lr_mult: 2
    decay_mult: 0
  }
  convolution_param {
    num_output: 11
    pad: 1
    kernel_size: 3
    weight_filler {
      type: "identity"
      std: 0.01
      num_groups: 11
    }
    bias_filler {
      type: "constant"
      value: 0
    }
  }
}
layer {
  name: "ctx_relu1_1"
  type: "ReLU"
  bottom: "ctx_conv1_1"
  top: "ctx_conv1_1"
}
layer {
  name: "ctx_conv1_2"
  type: "Convolution"
  bottom: "ctx_conv1_1"
  top: "ctx_conv1_2"
  param {
    lr_mult: 1
    decay_mult: 1
  }
  param {
    lr_mult: 2
    decay_mult: 0
  }
  convolution_param {
    num_output: 11
    pad: 1
    kernel_size: 3
    weight_filler {
      type: "identity"
      std: 0.01
      num_groups: 11
    }
    bias_filler {
      type: "constant"
      value: 0
    }
  }
}
layer {
  name: "ctx_relu1_2"
  type: "ReLU"
  bottom: "ctx_conv1_2"
  top: "ctx_conv1_2"
}
layer {
  name: "ctx_conv2_1"
  type: "Convolution"
  bottom: "ctx_conv1_2"
  top: "ctx_conv2_1"
  param {
    lr_mult: 1
    decay_mult: 1
  }
  param {
    lr_mult: 2
    decay_mult: 0
  }
  convolution_param {
    num_output: 11
    pad: 2
    kernel_size: 3
    weight_filler {
      type: "identity"
      std: 0.01
      num_groups: 11
    }
    bias_filler {
      type: "constant"
      value: 0
    }
    dilation: 2
  }
}
layer {
  name: "ctx_relu2_1"
  type: "ReLU"
  bottom: "ctx_conv2_1"
  top: "ctx_conv2_1"
}
layer {
  name: "ctx_conv3_1"
  type: "Convolution"
  bottom: "ctx_conv2_1"
  top: "ctx_conv3_1"
  param {
    lr_mult: 1
    decay_mult: 1
  }
  param {
    lr_mult: 2
    decay_mult: 0
  }
  convolution_param {
    num_output: 11
    pad: 4
    kernel_size: 3
    weight_filler {
      type: "identity"
      std: 0.01
      num_groups: 11
    }
    bias_filler {
      type: "constant"
      value: 0
    }
    dilation: 4
  }
}
layer {
  name: "ctx_relu3_1"
  type: "ReLU"
  bottom: "ctx_conv3_1"
  top: "ctx_conv3_1"
}
layer {
  name: "ctx_conv4_1"
  type: "Convolution"
  bottom: "ctx_conv3_1"
  top: "ctx_conv4_1"
  param {
    lr_mult: 1
    decay_mult: 1
  }
  param {
    lr_mult: 2
    decay_mult: 0
  }
  convolution_param {
    num_output: 11
    pad: 8
    kernel_size: 3
    weight_filler {
      type: "identity"
      std: 0.01
      num_groups: 11
    }
    bias_filler {
      type: "constant"
      value: 0
    }
    dilation: 8
  }
}
layer {
  name: "ctx_relu4_1"
  type: "ReLU"
  bottom: "ctx_conv4_1"
  top: "ctx_conv4_1"
}
layer {
  name: "ctx_fc1"
  type: "Convolution"
  bottom: "ctx_conv4_1"
  top: "ctx_fc1"
  param {
    lr_mult: 1
    decay_mult: 1
  }
  param {
    lr_mult: 2
    decay_mult: 0
  }
  convolution_param {
    num_output: 11
    pad: 1
    kernel_size: 3
    weight_filler {
      type: "identity"
      std: 0.01
      num_groups: 11
    }
    bias_filler {
      type: "constant"
      value: 0
    }
  }
}
layer {
  name: "ctx_fc1_relu"
  type: "ReLU"
  bottom: "ctx_fc1"
  top: "ctx_fc1"
}
layer {
  name: "ctx_final"
  type: "Convolution"
  bottom: "ctx_fc1"
  top: "ctx_final"
  param {
    lr_mult: 1
    decay_mult: 1
  }
  param {
    lr_mult: 2
    decay_mult: 0
  }
  convolution_param {
    num_output: 11
    kernel_size: 1
    weight_filler {
      type: "identity"
      std: 0.01
      num_groups: 11
    }
    bias_filler {
      type: "constant"
      value: 0
    }
  }
}
layer {
  name: "loss"
  type: "SoftmaxWithLoss"
  bottom: "ctx_final"
  bottom: "label"
  top: "loss"
  loss_weight: 1
  loss_param {
    ignore_label: 255
    normalization: VALID
  }
}
I0619 03:24:15.597435 15412 layer_factory.hpp:77] Creating layer data
I0619 03:24:15.605664 15412 net.cpp:106] Creating Layer data
I0619 03:24:15.605690 15412 net.cpp:411] data -> data
I0619 03:24:15.605715 15412 net.cpp:411] data -> label
I0619 03:24:15.610189 15412 image_label_data_layer.cpp:111] Opening image list dataset_kitti/Kitti/KITTI_SEMANTIC/train.txt
I0619 03:24:15.623018 15412 image_label_data_layer.cpp:120] Opening label list dataset_kitti/Kitti/KITTI_SEMANTIC/train.txt
I0619 03:24:15.623083 15412 image_label_data_layer.cpp:128] Shuffling data
I0619 03:24:15.623111 15412 image_label_data_layer.cpp:133] A total of 100 images.
I0619 03:24:15.623116 15412 image_label_data_layer.cpp:134] A total of 100 label.
I0619 03:24:15.687647 15412 image_label_data_layer.cpp:171] Assuming image and label map sizes are the same
I0619 03:24:15.687738 15412 image_label_data_layer.cpp:184] output data size: 2,3,900,900
I0619 03:24:15.687747 15412 image_label_data_layer.cpp:188] output label size: 2,1,66,66
I0619 03:24:15.717321 15412 net.cpp:150] Setting up data
I0619 03:24:15.717363 15412 net.cpp:157] Top shape: 2 3 900 900 (4860000)
I0619 03:24:15.717373 15412 net.cpp:157] Top shape: 2 1 66 66 (8712)
I0619 03:24:15.717378 15412 net.cpp:165] Memory required for data: 19474848
I0619 03:24:15.717387 15412 layer_factory.hpp:77] Creating layer conv1_1
I0619 03:24:15.717414 15412 net.cpp:106] Creating Layer conv1_1
I0619 03:24:15.717422 15412 net.cpp:454] conv1_1 <- data
I0619 03:24:15.717432 15412 net.cpp:411] conv1_1 -> conv1_1
I0619 03:24:16.029103 15412 net.cpp:150] Setting up conv1_1
I0619 03:24:16.029135 15412 net.cpp:157] Top shape: 2 64 898 898 (103219712)
I0619 03:24:16.029141 15412 net.cpp:165] Memory required for data: 432353696
I0619 03:24:16.029163 15412 layer_factory.hpp:77] Creating layer relu1_1
I0619 03:24:16.029177 15412 net.cpp:106] Creating Layer relu1_1
I0619 03:24:16.029183 15412 net.cpp:454] relu1_1 <- conv1_1
I0619 03:24:16.029191 15412 net.cpp:397] relu1_1 -> conv1_1 (in-place)
I0619 03:24:16.029453 15412 net.cpp:150] Setting up relu1_1
I0619 03:24:16.029464 15412 net.cpp:157] Top shape: 2 64 898 898 (103219712)
I0619 03:24:16.029469 15412 net.cpp:165] Memory required for data: 845232544
I0619 03:24:16.029474 15412 layer_factory.hpp:77] Creating layer conv1_2
I0619 03:24:16.029489 15412 net.cpp:106] Creating Layer conv1_2
I0619 03:24:16.029494 15412 net.cpp:454] conv1_2 <- conv1_1
I0619 03:24:16.029500 15412 net.cpp:411] conv1_2 -> conv1_2
I0619 03:24:16.031826 15412 net.cpp:150] Setting up conv1_2
I0619 03:24:16.031858 15412 net.cpp:157] Top shape: 2 64 896 896 (102760448)
I0619 03:24:16.031864 15412 net.cpp:165] Memory required for data: 1256274336
I0619 03:24:16.031879 15412 layer_factory.hpp:77] Creating layer relu1_2
I0619 03:24:16.031893 15412 net.cpp:106] Creating Layer relu1_2
I0619 03:24:16.031898 15412 net.cpp:454] relu1_2 <- conv1_2
I0619 03:24:16.031906 15412 net.cpp:397] relu1_2 -> conv1_2 (in-place)
I0619 03:24:16.032186 15412 net.cpp:150] Setting up relu1_2
I0619 03:24:16.032199 15412 net.cpp:157] Top shape: 2 64 896 896 (102760448)
I0619 03:24:16.032204 15412 net.cpp:165] Memory required for data: 1667316128
I0619 03:24:16.032210 15412 layer_factory.hpp:77] Creating layer pool1
I0619 03:24:16.032219 15412 net.cpp:106] Creating Layer pool1
I0619 03:24:16.032224 15412 net.cpp:454] pool1 <- conv1_2
I0619 03:24:16.032232 15412 net.cpp:411] pool1 -> pool1
I0619 03:24:16.032287 15412 net.cpp:150] Setting up pool1
I0619 03:24:16.032296 15412 net.cpp:157] Top shape: 2 64 448 448 (25690112)
I0619 03:24:16.032301 15412 net.cpp:165] Memory required for data: 1770076576
I0619 03:24:16.032306 15412 layer_factory.hpp:77] Creating layer conv2_1
I0619 03:24:16.032317 15412 net.cpp:106] Creating Layer conv2_1
I0619 03:24:16.032322 15412 net.cpp:454] conv2_1 <- pool1
I0619 03:24:16.032330 15412 net.cpp:411] conv2_1 -> conv2_1
I0619 03:24:16.034219 15412 net.cpp:150] Setting up conv2_1
I0619 03:24:16.034252 15412 net.cpp:157] Top shape: 2 128 446 446 (50922496)
I0619 03:24:16.034257 15412 net.cpp:165] Memory required for data: 1973766560
I0619 03:24:16.034274 15412 layer_factory.hpp:77] Creating layer relu2_1
I0619 03:24:16.034287 15412 net.cpp:106] Creating Layer relu2_1
I0619 03:24:16.034293 15412 net.cpp:454] relu2_1 <- conv2_1
I0619 03:24:16.034302 15412 net.cpp:397] relu2_1 -> conv2_1 (in-place)
I0619 03:24:16.034490 15412 net.cpp:150] Setting up relu2_1
I0619 03:24:16.034502 15412 net.cpp:157] Top shape: 2 128 446 446 (50922496)
I0619 03:24:16.034507 15412 net.cpp:165] Memory required for data: 2177456544
I0619 03:24:16.034512 15412 layer_factory.hpp:77] Creating layer conv2_2
I0619 03:24:16.034524 15412 net.cpp:106] Creating Layer conv2_2
I0619 03:24:16.034529 15412 net.cpp:454] conv2_2 <- conv2_1
I0619 03:24:16.034536 15412 net.cpp:411] conv2_2 -> conv2_2
I0619 03:24:16.036135 15412 net.cpp:150] Setting up conv2_2
I0619 03:24:16.036173 15412 net.cpp:157] Top shape: 2 128 444 444 (50466816)
I0619 03:24:16.036178 15412 net.cpp:165] Memory required for data: 2379323808
I0619 03:24:16.036192 15412 layer_factory.hpp:77] Creating layer relu2_2
I0619 03:24:16.036206 15412 net.cpp:106] Creating Layer relu2_2
I0619 03:24:16.036213 15412 net.cpp:454] relu2_2 <- conv2_2
I0619 03:24:16.036222 15412 net.cpp:397] relu2_2 -> conv2_2 (in-place)
I0619 03:24:16.036494 15412 net.cpp:150] Setting up relu2_2
I0619 03:24:16.036505 15412 net.cpp:157] Top shape: 2 128 444 444 (50466816)
I0619 03:24:16.036517 15412 net.cpp:165] Memory required for data: 2581191072
I0619 03:24:16.036523 15412 layer_factory.hpp:77] Creating layer pool2
I0619 03:24:16.036533 15412 net.cpp:106] Creating Layer pool2
I0619 03:24:16.036538 15412 net.cpp:454] pool2 <- conv2_2
I0619 03:24:16.036545 15412 net.cpp:411] pool2 -> pool2
I0619 03:24:16.036594 15412 net.cpp:150] Setting up pool2
I0619 03:24:16.036602 15412 net.cpp:157] Top shape: 2 128 222 222 (12616704)
I0619 03:24:16.036607 15412 net.cpp:165] Memory required for data: 2631657888
I0619 03:24:16.036612 15412 layer_factory.hpp:77] Creating layer conv3_1
I0619 03:24:16.036623 15412 net.cpp:106] Creating Layer conv3_1
I0619 03:24:16.036628 15412 net.cpp:454] conv3_1 <- pool2
I0619 03:24:16.036635 15412 net.cpp:411] conv3_1 -> conv3_1
I0619 03:24:16.038075 15412 net.cpp:150] Setting up conv3_1
I0619 03:24:16.038106 15412 net.cpp:157] Top shape: 2 256 220 220 (24780800)
I0619 03:24:16.038112 15412 net.cpp:165] Memory required for data: 2730781088
I0619 03:24:16.038126 15412 layer_factory.hpp:77] Creating layer relu3_1
I0619 03:24:16.038137 15412 net.cpp:106] Creating Layer relu3_1
I0619 03:24:16.038143 15412 net.cpp:454] relu3_1 <- conv3_1
I0619 03:24:16.038151 15412 net.cpp:397] relu3_1 -> conv3_1 (in-place)
I0619 03:24:16.038391 15412 net.cpp:150] Setting up relu3_1
I0619 03:24:16.038403 15412 net.cpp:157] Top shape: 2 256 220 220 (24780800)
I0619 03:24:16.038408 15412 net.cpp:165] Memory required for data: 2829904288
I0619 03:24:16.038414 15412 layer_factory.hpp:77] Creating layer conv3_2
I0619 03:24:16.038425 15412 net.cpp:106] Creating Layer conv3_2
I0619 03:24:16.038431 15412 net.cpp:454] conv3_2 <- conv3_1
I0619 03:24:16.038439 15412 net.cpp:411] conv3_2 -> conv3_2
I0619 03:24:16.040544 15412 net.cpp:150] Setting up conv3_2
I0619 03:24:16.040567 15412 net.cpp:157] Top shape: 2 256 218 218 (24332288)
I0619 03:24:16.040572 15412 net.cpp:165] Memory required for data: 2927233440
I0619 03:24:16.040583 15412 layer_factory.hpp:77] Creating layer relu3_2
I0619 03:24:16.040594 15412 net.cpp:106] Creating Layer relu3_2
I0619 03:24:16.040601 15412 net.cpp:454] relu3_2 <- conv3_2
I0619 03:24:16.040608 15412 net.cpp:397] relu3_2 -> conv3_2 (in-place)
I0619 03:24:16.040763 15412 net.cpp:150] Setting up relu3_2
I0619 03:24:16.040773 15412 net.cpp:157] Top shape: 2 256 218 218 (24332288)
I0619 03:24:16.040778 15412 net.cpp:165] Memory required for data: 3024562592
I0619 03:24:16.040783 15412 layer_factory.hpp:77] Creating layer conv3_3
I0619 03:24:16.040793 15412 net.cpp:106] Creating Layer conv3_3
I0619 03:24:16.040798 15412 net.cpp:454] conv3_3 <- conv3_2
I0619 03:24:16.040805 15412 net.cpp:411] conv3_3 -> conv3_3
I0619 03:24:16.042659 15412 net.cpp:150] Setting up conv3_3
I0619 03:24:16.042675 15412 net.cpp:157] Top shape: 2 256 216 216 (23887872)
I0619 03:24:16.042680 15412 net.cpp:165] Memory required for data: 3120114080
I0619 03:24:16.042690 15412 layer_factory.hpp:77] Creating layer relu3_3
I0619 03:24:16.042698 15412 net.cpp:106] Creating Layer relu3_3
I0619 03:24:16.042704 15412 net.cpp:454] relu3_3 <- conv3_3
I0619 03:24:16.042711 15412 net.cpp:397] relu3_3 -> conv3_3 (in-place)
I0619 03:24:16.042961 15412 net.cpp:150] Setting up relu3_3
I0619 03:24:16.042973 15412 net.cpp:157] Top shape: 2 256 216 216 (23887872)
I0619 03:24:16.042979 15412 net.cpp:165] Memory required for data: 3215665568
I0619 03:24:16.042984 15412 layer_factory.hpp:77] Creating layer pool3
I0619 03:24:16.042992 15412 net.cpp:106] Creating Layer pool3
I0619 03:24:16.042999 15412 net.cpp:454] pool3 <- conv3_3
I0619 03:24:16.043005 15412 net.cpp:411] pool3 -> pool3
I0619 03:24:16.043045 15412 net.cpp:150] Setting up pool3
I0619 03:24:16.043054 15412 net.cpp:157] Top shape: 2 256 108 108 (5971968)
I0619 03:24:16.043059 15412 net.cpp:165] Memory required for data: 3239553440
I0619 03:24:16.043064 15412 layer_factory.hpp:77] Creating layer conv4_1
I0619 03:24:16.043072 15412 net.cpp:106] Creating Layer conv4_1
I0619 03:24:16.043077 15412 net.cpp:454] conv4_1 <- pool3
I0619 03:24:16.043089 15412 net.cpp:411] conv4_1 -> conv4_1
I0619 03:24:16.046003 15412 net.cpp:150] Setting up conv4_1
I0619 03:24:16.046036 15412 net.cpp:157] Top shape: 2 512 106 106 (11505664)
I0619 03:24:16.046042 15412 net.cpp:165] Memory required for data: 3285576096
I0619 03:24:16.046053 15412 layer_factory.hpp:77] Creating layer relu4_1
I0619 03:24:16.046066 15412 net.cpp:106] Creating Layer relu4_1
I0619 03:24:16.046072 15412 net.cpp:454] relu4_1 <- conv4_1
I0619 03:24:16.046079 15412 net.cpp:397] relu4_1 -> conv4_1 (in-place)
I0619 03:24:16.046319 15412 net.cpp:150] Setting up relu4_1
I0619 03:24:16.046331 15412 net.cpp:157] Top shape: 2 512 106 106 (11505664)
I0619 03:24:16.046336 15412 net.cpp:165] Memory required for data: 3331598752
I0619 03:24:16.046344 15412 layer_factory.hpp:77] Creating layer conv4_2
I0619 03:24:16.046353 15412 net.cpp:106] Creating Layer conv4_2
I0619 03:24:16.046360 15412 net.cpp:454] conv4_2 <- conv4_1
I0619 03:24:16.046366 15412 net.cpp:411] conv4_2 -> conv4_2
I0619 03:24:16.051614 15412 net.cpp:150] Setting up conv4_2
I0619 03:24:16.051645 15412 net.cpp:157] Top shape: 2 512 104 104 (11075584)
I0619 03:24:16.051651 15412 net.cpp:165] Memory required for data: 3375901088
I0619 03:24:16.051666 15412 layer_factory.hpp:77] Creating layer relu4_2
I0619 03:24:16.051677 15412 net.cpp:106] Creating Layer relu4_2
I0619 03:24:16.051684 15412 net.cpp:454] relu4_2 <- conv4_2
I0619 03:24:16.051692 15412 net.cpp:397] relu4_2 -> conv4_2 (in-place)
I0619 03:24:16.051838 15412 net.cpp:150] Setting up relu4_2
I0619 03:24:16.051848 15412 net.cpp:157] Top shape: 2 512 104 104 (11075584)
I0619 03:24:16.051853 15412 net.cpp:165] Memory required for data: 3420203424
I0619 03:24:16.051858 15412 layer_factory.hpp:77] Creating layer conv4_3
I0619 03:24:16.051869 15412 net.cpp:106] Creating Layer conv4_3
I0619 03:24:16.051874 15412 net.cpp:454] conv4_3 <- conv4_2
I0619 03:24:16.051882 15412 net.cpp:411] conv4_3 -> conv4_3
I0619 03:24:16.057277 15412 net.cpp:150] Setting up conv4_3
I0619 03:24:16.057313 15412 net.cpp:157] Top shape: 2 512 102 102 (10653696)
I0619 03:24:16.057319 15412 net.cpp:165] Memory required for data: 3462818208
I0619 03:24:16.057330 15412 layer_factory.hpp:77] Creating layer relu4_3
I0619 03:24:16.057343 15412 net.cpp:106] Creating Layer relu4_3
I0619 03:24:16.057349 15412 net.cpp:454] relu4_3 <- conv4_3
I0619 03:24:16.057356 15412 net.cpp:397] relu4_3 -> conv4_3 (in-place)
I0619 03:24:16.057612 15412 net.cpp:150] Setting up relu4_3
I0619 03:24:16.057624 15412 net.cpp:157] Top shape: 2 512 102 102 (10653696)
I0619 03:24:16.057629 15412 net.cpp:165] Memory required for data: 3505432992
I0619 03:24:16.057634 15412 layer_factory.hpp:77] Creating layer conv5_1
I0619 03:24:16.057657 15412 net.cpp:106] Creating Layer conv5_1
I0619 03:24:16.057662 15412 net.cpp:454] conv5_1 <- conv4_3
I0619 03:24:16.057669 15412 net.cpp:411] conv5_1 -> conv5_1
I0619 03:24:16.062209 15412 net.cpp:150] Setting up conv5_1
I0619 03:24:16.062245 15412 net.cpp:157] Top shape: 2 512 98 98 (9834496)
I0619 03:24:16.062253 15412 net.cpp:165] Memory required for data: 3544770976
I0619 03:24:16.062266 15412 layer_factory.hpp:77] Creating layer relu5_1
I0619 03:24:16.062279 15412 net.cpp:106] Creating Layer relu5_1
I0619 03:24:16.062286 15412 net.cpp:454] relu5_1 <- conv5_1
I0619 03:24:16.062294 15412 net.cpp:397] relu5_1 -> conv5_1 (in-place)
I0619 03:24:16.062533 15412 net.cpp:150] Setting up relu5_1
I0619 03:24:16.062547 15412 net.cpp:157] Top shape: 2 512 98 98 (9834496)
I0619 03:24:16.062553 15412 net.cpp:165] Memory required for data: 3584108960
I0619 03:24:16.062559 15412 layer_factory.hpp:77] Creating layer conv5_2
I0619 03:24:16.062571 15412 net.cpp:106] Creating Layer conv5_2
I0619 03:24:16.062577 15412 net.cpp:454] conv5_2 <- conv5_1
I0619 03:24:16.062584 15412 net.cpp:411] conv5_2 -> conv5_2
I0619 03:24:16.066848 15412 net.cpp:150] Setting up conv5_2
I0619 03:24:16.066879 15412 net.cpp:157] Top shape: 2 512 94 94 (9048064)
I0619 03:24:16.066885 15412 net.cpp:165] Memory required for data: 3620301216
I0619 03:24:16.066896 15412 layer_factory.hpp:77] Creating layer relu5_2
I0619 03:24:16.066913 15412 net.cpp:106] Creating Layer relu5_2
I0619 03:24:16.066921 15412 net.cpp:454] relu5_2 <- conv5_2
I0619 03:24:16.066929 15412 net.cpp:397] relu5_2 -> conv5_2 (in-place)
I0619 03:24:16.067309 15412 net.cpp:150] Setting up relu5_2
I0619 03:24:16.067324 15412 net.cpp:157] Top shape: 2 512 94 94 (9048064)
I0619 03:24:16.067330 15412 net.cpp:165] Memory required for data: 3656493472
I0619 03:24:16.067335 15412 layer_factory.hpp:77] Creating layer conv5_3
I0619 03:24:16.067348 15412 net.cpp:106] Creating Layer conv5_3
I0619 03:24:16.067353 15412 net.cpp:454] conv5_3 <- conv5_2
I0619 03:24:16.067360 15412 net.cpp:411] conv5_3 -> conv5_3
I0619 03:24:16.071702 15412 net.cpp:150] Setting up conv5_3
I0619 03:24:16.071732 15412 net.cpp:157] Top shape: 2 512 90 90 (8294400)
I0619 03:24:16.071738 15412 net.cpp:165] Memory required for data: 3689671072
I0619 03:24:16.071750 15412 layer_factory.hpp:77] Creating layer relu5_3
I0619 03:24:16.071760 15412 net.cpp:106] Creating Layer relu5_3
I0619 03:24:16.071768 15412 net.cpp:454] relu5_3 <- conv5_3
I0619 03:24:16.071775 15412 net.cpp:397] relu5_3 -> conv5_3 (in-place)
I0619 03:24:16.071981 15412 net.cpp:150] Setting up relu5_3
I0619 03:24:16.071991 15412 net.cpp:157] Top shape: 2 512 90 90 (8294400)
I0619 03:24:16.071996 15412 net.cpp:165] Memory required for data: 3722848672
I0619 03:24:16.072001 15412 layer_factory.hpp:77] Creating layer fc6
I0619 03:24:16.072017 15412 net.cpp:106] Creating Layer fc6
I0619 03:24:16.072024 15412 net.cpp:454] fc6 <- conv5_3
I0619 03:24:16.072031 15412 net.cpp:411] fc6 -> fc6
I0619 03:24:16.257818 15412 net.cpp:150] Setting up fc6
I0619 03:24:16.257854 15412 net.cpp:157] Top shape: 2 4096 66 66 (35684352)
I0619 03:24:16.257858 15412 net.cpp:165] Memory required for data: 3865586080
I0619 03:24:16.257868 15412 layer_factory.hpp:77] Creating layer relu6
I0619 03:24:16.257877 15412 net.cpp:106] Creating Layer relu6
I0619 03:24:16.257881 15412 net.cpp:454] relu6 <- fc6
I0619 03:24:16.257886 15412 net.cpp:397] relu6 -> fc6 (in-place)
I0619 03:24:16.258221 15412 net.cpp:150] Setting up relu6
I0619 03:24:16.258231 15412 net.cpp:157] Top shape: 2 4096 66 66 (35684352)
I0619 03:24:16.258234 15412 net.cpp:165] Memory required for data: 4008323488
I0619 03:24:16.258237 15412 layer_factory.hpp:77] Creating layer drop6
I0619 03:24:16.258643 15412 net.cpp:106] Creating Layer drop6
I0619 03:24:16.258659 15412 net.cpp:454] drop6 <- fc6
I0619 03:24:16.258669 15412 net.cpp:397] drop6 -> fc6 (in-place)
I0619 03:24:16.258716 15412 net.cpp:150] Setting up drop6
I0619 03:24:16.258725 15412 net.cpp:157] Top shape: 2 4096 66 66 (35684352)
I0619 03:24:16.258730 15412 net.cpp:165] Memory required for data: 4151060896
I0619 03:24:16.258735 15412 layer_factory.hpp:77] Creating layer fc7
I0619 03:24:16.258746 15412 net.cpp:106] Creating Layer fc7
I0619 03:24:16.258751 15412 net.cpp:454] fc7 <- fc6
I0619 03:24:16.258757 15412 net.cpp:411] fc7 -> fc7
I0619 03:24:16.290587 15412 net.cpp:150] Setting up fc7
I0619 03:24:16.290626 15412 net.cpp:157] Top shape: 2 4096 66 66 (35684352)
I0619 03:24:16.290632 15412 net.cpp:165] Memory required for data: 4293798304
I0619 03:24:16.290647 15412 layer_factory.hpp:77] Creating layer relu7
I0619 03:24:16.290659 15412 net.cpp:106] Creating Layer relu7
I0619 03:24:16.290666 15412 net.cpp:454] relu7 <- fc7
I0619 03:24:16.290678 15412 net.cpp:397] relu7 -> fc7 (in-place)
I0619 03:24:16.290860 15412 net.cpp:150] Setting up relu7
I0619 03:24:16.290874 15412 net.cpp:157] Top shape: 2 4096 66 66 (35684352)
I0619 03:24:16.290879 15412 net.cpp:165] Memory required for data: 4436535712
I0619 03:24:16.290885 15412 layer_factory.hpp:77] Creating layer drop7
I0619 03:24:16.290894 15412 net.cpp:106] Creating Layer drop7
I0619 03:24:16.290900 15412 net.cpp:454] drop7 <- fc7
I0619 03:24:16.290907 15412 net.cpp:397] drop7 -> fc7 (in-place)
I0619 03:24:16.290940 15412 net.cpp:150] Setting up drop7
I0619 03:24:16.290947 15412 net.cpp:157] Top shape: 2 4096 66 66 (35684352)
I0619 03:24:16.290953 15412 net.cpp:165] Memory required for data: 4579273120
I0619 03:24:16.290964 15412 layer_factory.hpp:77] Creating layer final
I0619 03:24:16.290978 15412 net.cpp:106] Creating Layer final
I0619 03:24:16.290984 15412 net.cpp:454] final <- fc7
I0619 03:24:16.290992 15412 net.cpp:411] final -> final
I0619 03:24:16.293541 15412 net.cpp:150] Setting up final
I0619 03:24:16.293556 15412 net.cpp:157] Top shape: 2 11 66 66 (95832)
I0619 03:24:16.293562 15412 net.cpp:165] Memory required for data: 4579656448
I0619 03:24:16.293571 15412 layer_factory.hpp:77] Creating layer ctx_conv1_1
I0619 03:24:16.293584 15412 net.cpp:106] Creating Layer ctx_conv1_1
I0619 03:24:16.293589 15412 net.cpp:454] ctx_conv1_1 <- final
I0619 03:24:16.293598 15412 net.cpp:411] ctx_conv1_1 -> ctx_conv1_1
I0619 03:24:16.294595 15412 net.cpp:150] Setting up ctx_conv1_1
I0619 03:24:16.294608 15412 net.cpp:157] Top shape: 2 11 66 66 (95832)
I0619 03:24:16.294615 15412 net.cpp:165] Memory required for data: 4580039776
I0619 03:24:16.294631 15412 layer_factory.hpp:77] Creating layer ctx_relu1_1
I0619 03:24:16.294639 15412 net.cpp:106] Creating Layer ctx_relu1_1
I0619 03:24:16.294644 15412 net.cpp:454] ctx_relu1_1 <- ctx_conv1_1
I0619 03:24:16.294651 15412 net.cpp:397] ctx_relu1_1 -> ctx_conv1_1 (in-place)
I0619 03:24:16.294811 15412 net.cpp:150] Setting up ctx_relu1_1
I0619 03:24:16.294822 15412 net.cpp:157] Top shape: 2 11 66 66 (95832)
I0619 03:24:16.294827 15412 net.cpp:165] Memory required for data: 4580423104
I0619 03:24:16.294832 15412 layer_factory.hpp:77] Creating layer ctx_conv1_2
I0619 03:24:16.294844 15412 net.cpp:106] Creating Layer ctx_conv1_2
I0619 03:24:16.294850 15412 net.cpp:454] ctx_conv1_2 <- ctx_conv1_1
I0619 03:24:16.294857 15412 net.cpp:411] ctx_conv1_2 -> ctx_conv1_2
I0619 03:24:16.296035 15412 net.cpp:150] Setting up ctx_conv1_2
I0619 03:24:16.296062 15412 net.cpp:157] Top shape: 2 11 66 66 (95832)
I0619 03:24:16.296072 15412 net.cpp:165] Memory required for data: 4580806432
I0619 03:24:16.296084 15412 layer_factory.hpp:77] Creating layer ctx_relu1_2
I0619 03:24:16.296095 15412 net.cpp:106] Creating Layer ctx_relu1_2
I0619 03:24:16.296103 15412 net.cpp:454] ctx_relu1_2 <- ctx_conv1_2
I0619 03:24:16.296110 15412 net.cpp:397] ctx_relu1_2 -> ctx_conv1_2 (in-place)
I0619 03:24:16.296506 15412 net.cpp:150] Setting up ctx_relu1_2
I0619 03:24:16.296521 15412 net.cpp:157] Top shape: 2 11 66 66 (95832)
I0619 03:24:16.296528 15412 net.cpp:165] Memory required for data: 4581189760
I0619 03:24:16.296535 15412 layer_factory.hpp:77] Creating layer ctx_conv2_1
I0619 03:24:16.296550 15412 net.cpp:106] Creating Layer ctx_conv2_1
I0619 03:24:16.296557 15412 net.cpp:454] ctx_conv2_1 <- ctx_conv1_2
I0619 03:24:16.296566 15412 net.cpp:411] ctx_conv2_1 -> ctx_conv2_1
I0619 03:24:16.296933 15412 net.cpp:150] Setting up ctx_conv2_1
I0619 03:24:16.296947 15412 net.cpp:157] Top shape: 2 11 66 66 (95832)
I0619 03:24:16.296952 15412 net.cpp:165] Memory required for data: 4581573088
I0619 03:24:16.296962 15412 layer_factory.hpp:77] Creating layer ctx_relu2_1
I0619 03:24:16.296970 15412 net.cpp:106] Creating Layer ctx_relu2_1
I0619 03:24:16.296977 15412 net.cpp:454] ctx_relu2_1 <- ctx_conv2_1
I0619 03:24:16.296983 15412 net.cpp:397] ctx_relu2_1 -> ctx_conv2_1 (in-place)
I0619 03:24:16.297185 15412 net.cpp:150] Setting up ctx_relu2_1
I0619 03:24:16.297199 15412 net.cpp:157] Top shape: 2 11 66 66 (95832)
I0619 03:24:16.297204 15412 net.cpp:165] Memory required for data: 4581956416
I0619 03:24:16.297209 15412 layer_factory.hpp:77] Creating layer ctx_conv3_1
I0619 03:24:16.297230 15412 net.cpp:106] Creating Layer ctx_conv3_1
I0619 03:24:16.297237 15412 net.cpp:454] ctx_conv3_1 <- ctx_conv2_1
I0619 03:24:16.297250 15412 net.cpp:411] ctx_conv3_1 -> ctx_conv3_1
I0619 03:24:16.297725 15412 net.cpp:150] Setting up ctx_conv3_1
I0619 03:24:16.297747 15412 net.cpp:157] Top shape: 2 11 66 66 (95832)
I0619 03:24:16.297755 15412 net.cpp:165] Memory required for data: 4582339744
I0619 03:24:16.297766 15412 layer_factory.hpp:77] Creating layer ctx_relu3_1
I0619 03:24:16.297780 15412 net.cpp:106] Creating Layer ctx_relu3_1
I0619 03:24:16.297799 15412 net.cpp:454] ctx_relu3_1 <- ctx_conv3_1
I0619 03:24:16.297813 15412 net.cpp:397] ctx_relu3_1 -> ctx_conv3_1 (in-place)
I0619 03:24:16.298420 15412 net.cpp:150] Setting up ctx_relu3_1
I0619 03:24:16.298451 15412 net.cpp:157] Top shape: 2 11 66 66 (95832)
I0619 03:24:16.298461 15412 net.cpp:165] Memory required for data: 4582723072
I0619 03:24:16.298470 15412 layer_factory.hpp:77] Creating layer ctx_conv4_1
I0619 03:24:16.298496 15412 net.cpp:106] Creating Layer ctx_conv4_1
I0619 03:24:16.298506 15412 net.cpp:454] ctx_conv4_1 <- ctx_conv3_1
I0619 03:24:16.298519 15412 net.cpp:411] ctx_conv4_1 -> ctx_conv4_1
I0619 03:24:16.299063 15412 net.cpp:150] Setting up ctx_conv4_1
I0619 03:24:16.299080 15412 net.cpp:157] Top shape: 2 11 66 66 (95832)
I0619 03:24:16.299088 15412 net.cpp:165] Memory required for data: 4583106400
I0619 03:24:16.299100 15412 layer_factory.hpp:77] Creating layer ctx_relu4_1
I0619 03:24:16.299111 15412 net.cpp:106] Creating Layer ctx_relu4_1
I0619 03:24:16.299119 15412 net.cpp:454] ctx_relu4_1 <- ctx_conv4_1
I0619 03:24:16.299129 15412 net.cpp:397] ctx_relu4_1 -> ctx_conv4_1 (in-place)
I0619 03:24:16.299413 15412 net.cpp:150] Setting up ctx_relu4_1
I0619 03:24:16.299429 15412 net.cpp:157] Top shape: 2 11 66 66 (95832)
I0619 03:24:16.299435 15412 net.cpp:165] Memory required for data: 4583489728
I0619 03:24:16.299443 15412 layer_factory.hpp:77] Creating layer ctx_fc1
I0619 03:24:16.299460 15412 net.cpp:106] Creating Layer ctx_fc1
I0619 03:24:16.299468 15412 net.cpp:454] ctx_fc1 <- ctx_conv4_1
I0619 03:24:16.299479 15412 net.cpp:411] ctx_fc1 -> ctx_fc1
I0619 03:24:16.301095 15412 net.cpp:150] Setting up ctx_fc1
I0619 03:24:16.301156 15412 net.cpp:157] Top shape: 2 11 66 66 (95832)
I0619 03:24:16.301167 15412 net.cpp:165] Memory required for data: 4583873056
I0619 03:24:16.301187 15412 layer_factory.hpp:77] Creating layer ctx_fc1_relu
I0619 03:24:16.301204 15412 net.cpp:106] Creating Layer ctx_fc1_relu
I0619 03:24:16.301214 15412 net.cpp:454] ctx_fc1_relu <- ctx_fc1
I0619 03:24:16.301224 15412 net.cpp:397] ctx_fc1_relu -> ctx_fc1 (in-place)
I0619 03:24:16.301475 15412 net.cpp:150] Setting up ctx_fc1_relu
I0619 03:24:16.301491 15412 net.cpp:157] Top shape: 2 11 66 66 (95832)
I0619 03:24:16.301497 15412 net.cpp:165] Memory required for data: 4584256384
I0619 03:24:16.301504 15412 layer_factory.hpp:77] Creating layer ctx_final
I0619 03:24:16.301523 15412 net.cpp:106] Creating Layer ctx_final
I0619 03:24:16.301532 15412 net.cpp:454] ctx_final <- ctx_fc1
I0619 03:24:16.301542 15412 net.cpp:411] ctx_final -> ctx_final
I0619 03:24:16.303395 15412 net.cpp:150] Setting up ctx_final
I0619 03:24:16.303457 15412 net.cpp:157] Top shape: 2 11 66 66 (95832)
I0619 03:24:16.303472 15412 net.cpp:165] Memory required for data: 4584639712
I0619 03:24:16.303493 15412 layer_factory.hpp:77] Creating layer loss
I0619 03:24:16.303519 15412 net.cpp:106] Creating Layer loss
I0619 03:24:16.303529 15412 net.cpp:454] loss <- ctx_final
I0619 03:24:16.303541 15412 net.cpp:454] loss <- label
I0619 03:24:16.303553 15412 net.cpp:411] loss -> loss
I0619 03:24:16.303582 15412 layer_factory.hpp:77] Creating layer loss
…
